srv/proving/network.onnx (onnx, 13353 bytes, 8 tensors)

conv1.weight f4 [2, 1, 5, 5]
000000 2d d1 90 bd e7 3d 4b be 9a bf ea bb 9f 90 45 3e
       -0.07071147 -0.19847833 -0.007163954 0.1929345
000010 32 a2 00 be 90 a0 d2 bd 3a 73 33 3d c7 6f 21 be
       -0.12561873 -0.10284531 0.04381106 -0.15765296
000020 da 3a 3d be 00 85 ce bd 33 2f 6a 3d 2d 97 26 be
       -0.18479481 -0.100839615 0.05717392 -0.16268606
000030 c0 b5 ef bd 35 9a 25 be c8 99 3b be cb d6 3f be
       -0.11704588 -0.16172107 -0.18320382 -0.18734281
000040 7a 9c 07 be b5 23 1a be ad a0 08 3d 17 62 ee 3d
       -0.13243285 -0.15052684 0.033356357 0.11639803
000050 90 26 29 be 85 5c 45 be c0 0e e4 3c c0 bf 32 3d
       -0.16518617 -0.19273575 0.027839065 0.0436399
000060 5a 5e 61 bd ad e5 97 3d 0d 52 9e 3d 53 5f 94 3d
       -0.05502162 0.07416854 0.07730494 0.07244744
000070 50 f6 97 bd 43 6d e4 3d c0 59 ea 3c 97 5d bf bd
       -0.07420027 0.111536525 0.02860725 -0.09344023
000080 e7 d7 10 3c 67 07 b2 3c 10 f0 3c be e7 ac 25 3c
       0.008840538 0.021732045 -0.18450952 0.010112024
000090 40 96 ca bc 67 8d 3c 3e 35 66 32 be ed fb e9 3d
       -0.024729848 0.18413316 -0.17421801 0.11425004
0000a0 2a 34 0d 3e a3 3d d1 bd 9a 53 3e bb 7f b7 1b 3e
       0.1378943 -0.102168344 -0.002904153 0.15206717
0000b0 9a 1b d1 3d 8d 3b 51 3d c0 37 de bd 10 7d ff bd
       0.10210343 0.051082183 -0.10850477 -0.12475026
0000c0 28 c8 33 be a7 0d 67 bd
       -0.17556822 -0.056409504

conv1.bias f4 [2]
000000 00 5f c8 3b 57 c5 a9 3d
       0.0061148405 0.08289593

conv2.weight f4 [3, 2, 5, 5]
000000 fb 06 fb 3d 32 9d d2 3d d2 c1 f6 bd 98 dc 8a 3d
       0.12257191 0.10283889 -0.12048687 0.06780356
000010 67 1c fe bd 52 7e b4 ba e2 4f 9d 3d a8 42 15 3d
       -0.12407761 -0.0013770557 0.07681252 0.03644052
000020 c5 2f 07 3e 73 a8 82 bc f3 9b 0c 3e 05 12 07 3e
       0.13201816 -0.015949463 0.13731365 0.13190468
000030 11 c4 6a 3d b0 15 c8 bc ab 21 b6 3c 54 2c ec bd
       0.05731589 -0.024424404 0.022232851 -0.115318924
000040 53 e6 63 bc 64 82 e1 3c c1 2c 96 3d 0a bf 0b be
       -0.013909894 0.027527995 0.07332755 -0.13647094
000050 eb f8 25 3b 95 75 38 3d 8c 8d a1 3c cd 4e c2 bd
       0.0025325369 0.04503401 0.019720815 -0.09487686
000060 df ee bf bd 65 04 29 3d 45 51 bd 3d be 21 b2 3b
       -0.09371733 0.041263957 0.092440166 0.0054361513
000070 bf dd 70 bd c8 75 03 be f6 52 8d 3d 7c 33 06 3e
       -0.058805224 -0.12837899 0.06900589 0.13105577
000080 a9 9e 96 3d ba 44 bc bd 40 da a9 bd f7 36 9d bd
       0.07354481 -0.09192796 -0.08293581 -0.07676499
000090 b1 85 bf bc 82 72 e4 bd 11 9a 87 3d 88 1a 9c 3d
       -0.023379179 -0.11154653 0.06621183 0.07622248
0000a0 5c 1a e2 3d 85 ba 09 be dd f7 9d bd 1e 5c ae bb
       0.11040184 -0.13450058 -0.07713292 -0.00532104
0000b0 c2 03 94 bd 0d 5c 0e be 88 b5 8f bd b9 96 a1 bd
       -0.07227279 -0.13902302 -0.07017046 -0.07890076
0000c0 2e 45 da 3d 33 fd ca 3d ad 52 dd 3d 87 4b 78 3d
       0.10657726 0.09911575 0.10806785 0.060618903
0000d0 7b 48 d4 3d 64 00 b4 3d 53 05 0f 3e c2 3c 37 bd
       0.10365387 0.08789137 0.13966875 -0.044735678
0000e0 aa 68 60 bd 36 e4 a2 3c 19 55 c6 3a bc c6 4b bd
       -0.054787315 0.01988421 0.0015131562 -0.049750075
0000f0 33 aa 9b 3d 23 d4 0e be 27 72 84 3d 72 f9 06 3d
       0.07600822 -0.13948111 0.06467085 0.032952733
000100 f8 78 10 3e ac 61 77 bd 6e 73 3f bd c3 26 95 bd
       0.14108646 -0.06039588 -0.04674094 -0.07282784
000110 3e a0 9d 3d e1 64 ee 3d a5 9b 98 3d be 32 99 3d
       0.076965794 0.11640335 0.07451562 0.074803814
000120 f3 39 ea bc e5 e2 eb 3d 01 0f 3f bd ff 57 fe 3d
       -0.028592085 0.11517886 -0.04664517 0.12419128
000130 2b 04 9a 3c bb 51 fa 3d 16 34 a3 3d 17 47 a5 bd
       0.018800816 0.1222262 0.07968919 -0.080702
000140 2b b7 ce bc f7 06 39 3c cb c8 e2 bc 81 b0 0f be
       -0.025233826 0.011293164 -0.027683636 -0.14032175
000150 b2 dd 98 bc 62 eb f1 3c 13 f2 dd bd c4 28 00 3e
       -0.0186604 0.029531185 -0.108371876 0.12515551
000160 10 20 7f 3b 07 ab 55 3d 7d 50 a2 3d 19 6c ae bb
       0.0038929023 0.052165058 0.07925508 -0.005322945
000170 39 19 0c 3e e4 a9 2d bd e8 e2 e0 3c ed 79 ec bd
       0.13681497 -0.04239835 0.027451947 -0.11546693
000180 85 f1 b8 bd d9 66 2c bc c7 41 5a bd 4d a3 a8 3d
       -0.09030441 -0.010522568 -0.053285386 0.08234272
000190 13 6c 01 3d f1 80 a2 3d cc c2 bb bd 0d 76 0d bd
       0.03159721 0.0793475 -0.09168014 -0.03453641
0001a0 18 3c 0f 3e 8a de dd bd 75 4d 34 bd 35 1d 9c bd
       0.13987768 -0.108334616 -0.04401918 -0.07622758
0001b0 25 c3 6c bc 0a 2f 0f 3d 88 18 6b bd 7f 30 47 3d
       -0.014450823 0.03495697 -0.05739644 0.048630234
0001c0 fd 7c a2 bd 1d 3f 0b 3e 49 43 89 bc b0 8b 08 3e
       -0.07933996 0.13598295 -0.016755717 0.13334537
0001d0 ba a2 75 3a 71 37 a6 3d 56 9e fd 3c 85 97 12 bd
       0.00093702564 0.08116043 0.03095929 -0.03578903
0001e0 32 20 3c 3d 10 64 47 3a 58 b6 e4 bd d3 c5 7f 3d
       0.04592914 0.0007606158 -0.11167592 0.06244452
0001f0 bc ca 90 3d 24 95 f4 bc 17 ca 79 bd 30 12 b2 bb
       0.070699185 -0.029856272 -0.060983744 -0.005434297
000200 99 80 ed 3d ee 4f 36 bd f8 0c 60 3d d9 34 e1 3d
       0.11596794 -0.04450982 0.054699868 0.10996408
000210 99 4d 41 bc 6e 1a 81 3d 59 80 9b 3c 4b 83 82 3c
       -0.011798286 0.06303869 0.0189821 0.015931746
000220 31 9e 03 be 56 80 1e bd 00 f0 22 bd ec 4a 95 3d
       -0.12853314 -0.03869661 -0.039779663 0.07289681
000230 71 06 b1 3c fe f8 c0 3c 21 4c a4 bc 40 93 72 3b
       0.021609517 0.023556229 -0.020055832 0.0037014037
000240 da f0 bf 3c a8 d6 e7 3c e7 e6 7b bd c0 1f 03 be
       0.023430277 0.028300598 -0.061499503 -0.1280508
000250 80 8c 5c bb 84 41 4b bd
       -0.003365308 -0.049623027

conv2.bias f4 [3]
000000 01 18 f0 3d 7e 33 70 bd 10 32 d0 bd
       0.117233284 -0.058642857 -0.10165799

d1.weight f4 [48, 48]
000000 12 20 f0 bb 17 51 97 bd 30 53 11 3d 66 07 01 3d
       -0.007328042 -0.073885135 0.035479724 0.031501196
000010 51 eb a4 3d db 5d cc 3c 3d 36 83 3c 6b 41 bc bd
       0.080526955 0.024947098 0.016017074 -0.09192165
000020 30 8e c5 bc 00 49 b1 bd 24 42 0e 3e c1 2e e0 3d
       -0.024115652 -0.08656502 0.13892418 0.109464176
000030 0d 8e d3 bc ae 63 ee bd a0 f9 40 3d 98 28 04 3e
       -0.025824571 -0.11640106 0.04711306 0.1290611
000040 56 9d 89 3d a7 f0 6c 3d 51 c2 c3 bd 78 53 c8 3d
       0.067194626 0.05784669 -0.09558547 0.097815454
000050 8b c0 2f bd ea 31 0b be 39 a3 0e 3e 88 7e e8 bc
       -0.042908233 -0.1359326 0.13929452 -0.028380647
000060 40 9d 8d 3d 73 1e 80 bd 7e cb 0f bc 84 22 c9 3d
       0.06914759 -0.06255808 -0.008776544 0.098210365
000070 ca 01 b3 3d b9 34 08 3e e2 37 0d be 80 ff 35 bd
       0.087405756 0.13301362 -0.13790849 -0.044433117
000080 8b 8e d7 3d 73 64 d5 bb 88 a8 97 bc bb 91 52 3d
       0.10525235 -0.0065122186 -0.01851298 0.05140851
000090 8c ad 14 bd ba 48 fb bc 85 4f 04 be ac 61 99 3d
       -0.03629832 -0.030674327 -0.1292096 0.074893326
0000a0 c4 5e cb 3d 58 f3 3d 3d 6c 05 10 3e 11 fb 0e be
       0.099301845 0.04637465 0.14064568 -0.13962962
0000b0 b7 39 bc 3d e2 30 d6 3d 88 8c b4 3d cf 71 ed 3d
       0.09190696 0.104585424 0.08815867 0.11593973
0000c0 d2 ff c9 bd 81 bd c6 3d c5 0d e9 3d 94 ac 91 3d
       -0.09863247 0.09704114 0.113795795 0.07112995
0000d0 c7 8d 9c 3d e9 0a 5d 3d 15 ff b5 bc 35 ae be 3d
       0.076442294 0.053965483 -0.02221636 0.09310571
0000e0 4d 89 e3 3d c6 1c 85 bd 67 7c 8c 3d 29 72 d5 3c
       0.111101724 -0.06499629 0.06859665 0.026055412
0000f0 43 73 d4 3b a1 85 d4 3c 4b 28 dd bd ba 78 ab 3d
       0.006483467 0.025942625 -0.10798701 0.08372636
000100 7a 7f 57 3c 4c 23 8a 3d 2a b7 b1 bc a4 bb 8c 3d
       0.013152951 0.067450136 -0.021693785 0.06871727
000110 24 44 0d 3e ff d0 2a bd ce aa 7a 3d fd c7 3e bd
       0.13795525 -0.04170322 0.06119805 -0.046577442
000120 e2 82 35 3b 62 92 06 3d 3e 25 c3 bd 04 fb e8 bd
       0.002769642 0.032854445 -0.09528588 -0.113760024
000130 f8 f8 c3 3d 4d e2 85 3d 73 da c4 3b c4 85 00 be
       0.095689714 0.06537304 0.0060074865 -0.12551028
000140 19 c3 54 3d da 95 0f be a2 de 25 bd 55 b1 e7 bd
       0.051943872 -0.14022008 -0.040495522 -0.1131312
000150 f9 eb ad 3d 7a 0b d9 3d ad 3a 81 3d 9c bf 02 bd
       0.08492274 0.10597892 0.0631002 -0.031921014
000160 3b 81 f3 bc 2a 22 f4 3d f4 43 f7 3d 5f 7f 26 bd
       -0.029724708 0.11920579 0.12073508 -0.040648814
000170 5a d2 ac 3b 90 a5 f0 bd 7d 33 42 3c c0 70 86 bc
       0.0052740993 -0.117503285 0.011853096 -0.016411185
000180 ea 2e 90 3d d4 11 00 be b0 e7 f0 3b 43 03 00 be
       0.07040198 -0.12506801 0.007351838 -0.12501244
000190 8d 7c ae 3d d9 3b 64 bc a9 e6 26 3c 3f 14 b7 3c
       0.0851985 -0.013930284 0.01018683 0.022348521
0001a0 98 be 7a bc 2c b9 6a 3d 8b 81 05 3e d2 31 50 bd
       -0.01530423 0.0573055 0.13037698 -0.050828762
0001b0 28 11 15 bd 54 41 d4 3d b4 20 fd 3d 6c 8b ff 3d
       -0.036393315 0.10364023 0.12359753 0.124777645
0001c0 11 4f e1 3d 01 82 e5 bd 68 05 03 be e6 b5 c8 bd
       0.11001409 -0.11206437 -0.12795031 -0.098003194
0001d0 dc a1 36 bd b7 41 37 bd 87 5e eb bd bb 20 12 be
       -0.044587955 -0.044740405 -0.11492639 -0.14270298
0001e0 2c eb 0b 3d 2b 53 0a be d3 20 06 bd 68 2c 03 3e
       0.034159824 -0.13508289 -0.032746147 0.12809908
0001f0 48 68 30 bd f9 ff 70 bd 21 e2 08 bd 4d ac 7c bd
       -0.0430682 -0.058837865 -0.03341878 -0.061687756
000200 7f c3 af bd a4 77 51 bc da 8a 95 3d df 5f 03 be
       -0.0858221 -0.012784872 0.073018745 -0.1282954
000210 0c c1 f4 3c d0 d6 be bd a1 e8 b5 3d c0 08 2e bd
       0.029877208 -0.09318316 0.08882261 -0.042488813
000220 5f 22 cb bd 5f c2 d8 3d ab 61 88 3c 27 16 76 3d
       -0.09918665 0.10583948 0.016648134 0.06007972
000230 83 45 ab bd 79 be 68 3c cc d8 10 be e9 8e 45 3d
       -0.08362868 0.0142055685 -0.14145201 0.048231993
000240 0e 80 e6 bd 27 cc c3 3d a4 9f 69 3d bf ad 15 bd
       -0.11254893 0.09560423 0.05703701 -0.03654265
000250 57 23 9c 3d f4 eb 95 3d 9f d2 ec 3d 15 8f 07 be
       0.07623928 0.07320395 0.1156361 -0.13238175
000260 7f e4 71 bc 8b 9d 13 be c8 5c 0c bd b2 42 d8 bb
       -0.01476395 -0.14415567 -0.03426817 -0.0065997476
000270 9f a7 6f bc 8f e1 42 bc 5b ef 02 3e 32 24 83 bb
       -0.014627366 -0.011894598 0.1278662 -0.0040021176
000280 a8 92 fd bd 92 10 af 3d 52 57 95 3d 76 4a 63 3d
       -0.12381488 0.085480824 0.07292046 0.055490933
000290 ee 1d fc bd e0 c7 1d bd 75 95 a9 bd 61 0f bb 3c
       -0.12310396 -0.038520694 -0.0828046 0.022834482
0002a0 e8 4c 57 3d a1 8f 11 bb b4 5f 55 3d d3 ac 9f bd
       0.052563578 -0.0022210854 0.052093223 -0.077966355
0002b0 4e 62 b5 bd 26 1d e8 3d 81 d4 51 bd f6 97 0b 3c
       -0.08856641 0.113336846 -0.05122805 0.008520117
0002c0 05 71 01 bb 57 59 a8 bd 71 b3 f2 3c 86 05 bf 3d
       -0.0019751203 -0.08220165 0.02962658 0.093272254
0002d0 ad 6f 11 3e 4a 7b 21 3c 33 b4 90 3c 9e 21 38 bd
       0.14202757 0.009856055 0.01766405 -0.044953935
0002e0 c6 0b fe 3d cd 3a 98 bd b9 19 a9 ba 6d 72 aa bd
       0.12404589 -0.0743309 -0.0012901343 -0.08322606
0002f0 ae 8b c8 bd f5 ac 92 bd dd 2e af 3d 69 f8 54 bc
       -0.09792267 -0.07161895 0.0855386 -0.012998679
000300 12 37 39 bd f7 b4 dc 3d 4f 51 bf 3c 43 c6 12 be
       -0.045218535 0.10776704 0.0233542 -0.14333443
000310 8d ec 49 bd 21 48 92 3c 76 ea f4 3d a8 15 89 ba
       -0.049297858 0.01785666 0.119587824 -0.0010458725
000320 01 df fe bc 6f 00 01 3c 5f 55 f7 bd a7 f1 d2 3d
       -0.031112196 0.0078736385 -0.1207683 0.10299998
000330 41 94 9b 3d 7b d6 a9 3c d6 78 af bd cc bb ea bd
       0.075966366 0.020732155 -0.085679695 -0.11461601
000340 33 04 5c 3d 00 ba 4d 3d aa 5f 53 3d 45 26 b6 bc
       0.053714942 0.05022621 0.051604904 -0.022235045
000350 89 24 e2 bd 86 d6 4e bb 77 95 9c bd f2 42 d8 3d
       -0.11042125 -0.0031560971 -0.07645696 0.10559644
000360 9f f1 16 bd 92 86 00 3e 7c e8 a6 bd cf 0e b8 3d
       -0.03685152 0.12551335 -0.081498116 0.089871995
000370 0f 2a 00 bd f4 5a 84 ba f8 39 fd 3d bd 84 b6 bd
       -0.03129011 -0.0010097907 0.12364572 -0.089120366
000380 79 5d 85 bd 16 09 41 bd 43 a0 90 3d 14 46 e9 bc
       -0.06511969 -0.047127806 0.070618175 -0.028475799
000390 40 8d 13 3e 77 09 e7 3d 71 7d cc bd 21 cc ed bd
       0.14409351 0.11281102 -0.099848635 -0.116112
0003a0 18 ac 13 be c9 2f 0a 3e 13 13 e8 bb fa 42 37 bc
       -0.14421117 0.13494791 -0.007082352 -0.011185402
0003b0 ee 08 7b bc c4 cb f7 bd 47 59 c3 bd c0 de b1 bc
       -0.015321953 -0.12099412 -0.09538513 -0.02171266
0003c0 d0 5b a9 3d 00 17 60 3d 56 8d 5b bc 80 1f f8 bc
       0.08269465 0.054709435 -0.013400396 -0.030288458
0003d0 0a 8e e7 bd 98 ca bd 3d c8 f8 13 bd 14 51 94 bd
       -0.11306389 0.09267157 -0.03612593 -0.07242027
0003e0 69 d5 8b 3d 22 2d fc bd 2f 70 d3 bd ef 07 e8 3d
       0.06827814 -0.12313296 -0.10324132 0.11329638
0003f0 58 64 43 3d b3 03 67 3d 2f 33 03 be 39 2e f0 bd
       0.047703117 0.056400012 -0.12812494 -0.11727566

d1.bias f4 [48]
000000 88 44 f0 3d 58 88 79 ba 0e a7 05 be 9f 1b e2 3d
       0.11731821 -0.0009518913 -0.13052008 0.110404246
000010 73 17 cf 3d 65 36 88 bd fe d7 23 3d 05 5e 1b bd
       0.101118945 -0.06651 0.040000908 -0.03793146
000020 73 41 41 3d d5 57 b3 bc c2 36 63 bd 31 a5 45 3d
       0.047181558 -0.021892468 -0.055472143 0.048253242
000030 f7 61 91 3d 50 00 09 bd fb 5f cf 3d 60 22 13 3e
       0.070987634 -0.033447564 0.10125729 0.14368582
000040 1e 11 43 bc 99 7f 1e 3d 41 c3 be 3d 9c 85 0e 3e
       -0.0119059365 0.038695905 0.093145855 0.13918155
000050 6d 81 ef bd e9 85 00 3d 1d 40 f2 3c f4 71 a0 bd
       -0.11694608 0.031377707 0.029571587 -0.07834235
000060 41 6c e5 3c fe bf c4 bd 83 33 d9 bd b7 ad eb 3d
       0.028005721 -0.09606932 -0.10605528 0.11507743
000070 37 49 2e bd 0d d0 21 bd c7 de 82 3d c1 bc d2 3d
       -0.042550292 -0.039505053 0.06390148 0.10289908
000080 bb c6 45 3d 23 87 17 bd 45 42 b4 3d c8 b3 05 be
       0.048285227 -0.03699411 0.088017024 -0.13056862
000090 5a 7a 57 3a f7 c5 08 be 67 5e 87 bc 38 8e 8e 3d
       0.0008219831 -0.13356768 -0.016524507 0.0696072
0000a0 49 be 85 bd a3 61 d9 bc e0 a3 2c bb 63 07 f0 3a
       -0.06530435 -0.026535815 -0.0026342794 0.0018312748
0000b0 06 7e 4b 3c 7f f4 bb 3d f1 cb 08 be 83 2b ea 3d
       0.012420183 0.09177493 -0.13359047 0.114340805

d2.weight f4 [10, 48]
000000 c1 ea 0a 3c da 0f 73 3c 68 49 f4 3d cc 1d fe 3d
       0.008478821 0.014835322 0.11928064 0.12408027
000010 7b da 54 bd 97 dd 92 bd 6e 61 e8 bd 43 f8 05 3e
       -0.05196617 -0.07171171 -0.11346708 0.13082986
000020 c9 52 8b 3c be d4 1f 3c 12 d0 71 3c 57 34 0e 3e
       0.017007248 0.0097553115 0.0147590805 0.13887154
000030 44 a2 9c 3d ec 73 00 be 70 29 c1 bd bf 08 b8 bd
       0.07648137 -0.1254422 -0.09431732 -0.08986043
000040 e8 fc 89 3d 6e bd a0 3d 1d 64 ec bd c8 38 ff 3d
       0.06737691 0.07848631 -0.115425326 0.12462002
000050 c5 7e 07 bc 52 bc 10 3b d4 d8 03 be 35 9a 64 bd
       -0.00826997 0.0022084904 -0.12875682 -0.055811126
000060 fc 4e ad bc 6e 67 84 bd c2 0e a4 3d 2c e1 02 3e
       -0.021155827 -0.0646504 0.08010627 0.12781209
000070 01 c1 21 3b a2 fc 9e bd 55 bb 8d 3d 12 d6 63 3d
       0.002468169 -0.0776303 0.069204964 0.055624075
000080 bb f5 5b 3d 02 46 dc bd 65 b0 ae bc 10 e4 a5 3d
       0.053701144 -0.107555404 -0.021324346 0.0810014
000090 c3 02 0b 3e a1 e7 f6 bd 6a 4f 08 3e 2a 16 bb 3d
       0.13575272 -0.120558985 0.13311544 0.09135087
0000a0 7c 05 b0 bd 81 50 bf bd fe d1 ef 3d 44 c4 f4 bd
       -0.08594796 -0.09341527 0.11709975 -0.11951497
0000b0 f7 7c 85 3c de 71 1b 3d 75 d0 c7 3d a0 67 96 3d
       0.01629494 0.03795039 0.09756557 0.07343984
0000c0 84 cf 29 bd d0 b2 5e 3d 87 14 28 3d b1 82 cf 3d
       -0.041457668 0.054369748 0.0410352 0.10132349
0000d0 e4 03 41 bd 7c 7c 27 3c a7 48 45 bd 79 6b c5 bd
       -0.04712285 0.0102225505 -0.04816499 -0.096396394
0000e0 0e 47 e9 3c 9a 46 ff 3d 3c d9 22 bc 53 56 13 be
       0.028476264 0.12464638 -0.009939488 -0.14388399
0000f0 f6 5d 0e be f2 b2 ce 3c c4 8e 17 bd d2 73 bc 3d
       -0.13903031 0.025231812 -0.037001386 0.092017785
000100 95 b8 a6 3c 21 93 eb 3d a1 cd 09 3e 06 40 59 bd
       0.020351687 0.11502672 0.13457347 -0.053039573
000110 ab 67 47 3d f2 8a c0 3d 2b e4 de bd e0 08 49 3d
       0.04868285 0.09401502 -0.10883363 0.04908073
000120 48 ba 0f 3e 9f 16 75 3d 7f 70 4c 3d 7b 80 b3 bd
       0.14035904 0.059836026 0.049911972 -0.0876474
000130 87 ef 2e bd d2 21 ff 3d db 7e 9b 3b 2c 80 ca 3d
       -0.0427089 0.124576226 0.004745347 0.09887728
000140 fe 89 b7 bd dc 17 3d 3d 52 6c 8e bc c3 a3 80 3d
       -0.08961867 0.046165332 -0.017385636 0.06281235
000150 f8 51 9a 3d a1 4d b3 3d 26 c7 a4 bd 40 92 99 bd
       0.075351655 0.08755041 -0.08045797 -0.07498598
000160 d3 6f 60 bd 78 ae 0e be bb dd 8a 3c 17 c6 ac bd
       -0.054794144 -0.13933742 0.016951432 -0.0843622
000170 29 c4 21 3d dd 42 18 3d 24 3d 0f be 17 dd 05 be
       0.039493714 0.03717314 -0.13988167 -0.1307262
000180 fd d7 ec 3c 81 94 fa 3d 71 d0 4a bd 68 28 13 3e
       0.028911585 0.12235356 -0.04951519 0.14370883
000190 48 55 f9 3c 18 98 96 bd 73 ed 11 be ce 2d dd bd
       0.030436173 -0.07353228 -0.14250736 -0.10799752
0001a0 a8 ea e5 3c 86 91 77 bd 8b eb 9b 3b f0 b2 5b 3c
       0.028065994 -0.060441516 0.0047583035 0.013409361
0001b0 cc b1 e3 3d 65 a8 3c 3d 0b b8 9f bd 12 c0 90 bc
       0.111178964 0.04605903 -0.07798775 -0.017669711
0001c0 ae 06 eb 3d ab d2 d7 3d e1 48 88 3d 95 f4 0d be
       0.114758834 0.105382286 0.066545255 -0.13862832
0001d0 97 a9 8c 3d 60 80 d2 bd 29 e0 90 bd 49 4d f0 bd
       0.06868284 -0.10278392 -0.07074005 -0.11733491
0001e0 11 f1 3a bc a5 4b 8f bd 01 2a 00 3e e6 11 f1 3d
       -0.011410014 -0.0699685 0.12516023 0.11770992
0001f0 b8 01 03 bd f8 1d 30 bd a9 b2 6d bd 51 35 9c bd
       -0.03198406 -0.04299733 -0.05803171 -0.07627357
000200 36 5b cb 3d 3e 42 bf 3d 38 9a db 3d 10 5b 05 bd
       0.099295065 0.093388066 0.10722774 -0.032557547
000210 9a 9a 97 3d 60 b4 a1 3d 05 ac b7 3c b7 40 13 3e
       0.07402535 0.07895732 0.022420892 0.14380156
000220 d1 1d 71 3d fd cd a4 3d 14 b7 05 3e ee 8a 0c 3e
       0.058866326 0.08047102 0.1305812 0.13724872
000230 21 14 f4 bc f0 57 31 3c d9 bd 6d bd 09 b5 7d bd
       -0.029794754 0.010824189 -0.05804238 -0.061940227
000240 33 24 12 3e 6d f5 c9 bb 48 bd cb 3d a5 24 7c 3d
       0.14271621 -0.0061632902 0.09948212 0.061558384
000250 58 48 b4 bd a6 12 8d 3d 52 72 d2 3d 87 8f 32 bd
       -0.08802861 0.068883225 0.10275711 -0.04359391
000260 3c c8 64 3d fa 86 02 bd 54 9d e5 3b 08 6c 0e 3c
       0.05585502 -0.031867005 0.0070072804 0.008692749
000270 1c 39 d3 3c 6f cf e5 3d 54 fa 28 3d f1 75 8a bd
       0.025784068 0.112212054 0.041254357 -0.06760777
000280 03 82 07 be 5c 25 92 bd 7a f2 d3 bc 02 02 d1 3d
       -0.1323319 -0.07136032 -0.025872458 0.10205461
000290 55 07 fb bd 04 61 e8 bd 5d 0f 89 bd 43 65 b1 3d
       -0.12257258 -0.11346629 -0.066923834 0.08661892
0002a0 f9 f3 c5 3d 5e 4c 5a 3d 2d ef 26 bc e0 51 00 3e
       0.09665675 0.053295486 -0.01018886 0.12531233
0002b0 c4 22 8b 3d 1f e6 10 be cf b5 03 be ad ca 3e 3c
       0.067937404 -0.14150284 -0.12862323 0.011645001
0002c0 e9 3d 08 be bb 4e b7 3d d0 ec bc 3c cd 37 91 3c
       -0.13304867 0.089505635 0.02306214 0.017726803
0002d0 9a bd a1 bd c8 09 19 3d de 9d af 3c d7 42 cf 3d
       -0.07897492 0.037362844 0.021437582 0.101201706
0002e0 ec 58 c1 bd ab e5 ee bc bf 0a a6 3d b2 e6 21 3d
       -0.094407886 -0.029162249 0.081075184 0.03952665
0002f0 02 5b 68 bd 2f 46 ed 3d 99 7c e0 3d 48 8d 40 bd
       -0.056727417 0.11585652 0.10961265 -0.047009736
000300 18 a4 7c bd 8d 11 10 bd ee 6c a7 bd 4e 4f ee bd
       -0.06167993 -0.035172988 -0.081750736 -0.1163622
000310 cd 61 f4 bd 96 eb 0d bd 9d 7d b7 3c ab 4f 29 bd
       -0.119327165 -0.0346485 0.022398764 -0.041335743
000320 6e 37 df bd 4f 2d 86 bb f4 c8 c8 3d 30 c9 b0 3b
       -0.10899244 -0.0040947567 0.09803954 0.005395077
000330 bd c9 3e bc 9c 76 cc bd 3f 64 81 3c ea fc ad bd
       -0.011644778 -0.099835604 0.015794871 -0.08495505
000340 52 79 d0 3c 2e 34 1b bd 9e 64 b8 bd 18 ff b6 3d
       0.025448475 -0.03789156 -0.09003566 0.08935374
000350 c5 de 9c 3d a4 78 c0 3d a8 a8 89 3d 34 28 12 be
       0.076596774 0.093980104 0.06721622 -0.14273149
000360 d2 76 08 be b8 ec 05 3e af 1a 02 3e fd 67 10 be
       -0.13326576 0.13078582 0.12705491 -0.14102168
000370 31 01 18 3c 7c 21 60 3d 5d ef a3 3d aa 52 5b bd
       0.009277628 0.054719433 0.08004639 -0.05354563
000380 80 60 c1 3c 58 d1 7d bd 27 90 9b bd 78 87 8b bc
       0.023605585 -0.061967224 -0.07595854 -0.01703237
000390 8d 1e a1 bc 53 4c 6c 3d be 70 2b bd 40 1b a0 b8
       -0.019667888 0.057689976 -0.041855566 -7.63447e-05
0003a0 73 69 db bd 25 73 96 3c 24 4d be bd 5f 0b 1c 3c
       -0.10713472 0.018365452 -0.09292057 0.009524195
0003b0 9c 1d 80 3c b8 ae 8a 3d f9 47 bf bd b9 08 c7 3d
       0.015639119 0.06771606 -0.093398996 0.097184606
0003c0 71 e0 88 bd c5 5c 00 be 2a 46 d5 3d d5 03 e2 3d
       -0.06683434 -0.12535389 0.10413773 0.11035887
0003d0 63 c3 ba bd 8f 50 bf 3d 1a 9b f5 3d cd 4b b9 3d
       -0.09119298 0.09341537 0.11992474 0.09047661
0003e0 8a a0 e5 3d cf 34 19 bd dc 32 2d bd af 4b b8 3d
       0.11212261 -0.037403878 -0.04228483 0.089988105
0003f0 52 a1 ab 3d 89 a0 a9 bd ce 50 ea 3d 11 69 0a bd
       0.08380379 -0.08282573 0.114411935 -0.033791605

d2.bias f4 [10]
000000 9c 97 06 3e a5 3b dd 3d 46 58 a7 3d 58 3c 75 3d
       0.13143772 0.10802392 0.08171134 0.059872
000010 b3 34 87 bd 0f c5 03 be 1e bf 91 bd 3a 9e 07 3e
       -0.066018485 -0.1286814 -0.07116531 0.13243952
000020 e7 dc 0e be ed 58 ab 3d
       -0.13951455 0.083665706
